emission_model.pth (torch, 14030 bytes, 5 tensors)

net.0.weight f4 [64, 10]
00000000: b229 bebe 4bd5 083f 2749 313f c8af 063f
00000010: 97d0 d83e f139 c8be c73a 1abf abb1 a13e
00000020: 6be9 993f d4c7 013f 3e75 353f 5688 e43e
00000030: ddfa 603f 9985 3d3f a403 3abf 3705 86be
00000040: 659c 983e 4f5b d53e 883a 9b3f 4727 01bf
00000050: 04ee 073f 81b8 21bf f486 06bf 1da4 0a3f
00000060: 94ef 0d3f 9cb2 c6be 6b43 febe 8c3f 36bf
00000070: b17c 683f b190 2a3f dad0 2e3f a977 dabe
00000080: ba52 afbe bf83 2fbf 77c8 43bf 9b0b 37bf
00000090: 6c42 043f d437 1a3f a443 703f a482 293f
000000a0: 6e02 2d3f 81f4 f4be 57a6 ecbe 738f 263f
000000b0: 69d9 5bbf 4afe 20bf a091 183f b0a8 45bf
000000c0: 3241 423f 84b6 533f 7e2c 113f d35e 443f
000000d0: e633 d2be 9ba2 413f aa6f 583f 6ef4 23bf
000000e0: 2e70 e13e 22e2 08bf 7937 843f 695f 0abf
000000f0: 07db 16bf e2c4 1a3f 487b 4dbf d416 54bf
00000100: e6c4 1a3f 48fd 573f ae35 69bf 0b27 fcbe
00000110: d4ef 4a3f 6cc1 4dbf 1d80 c63e 10ba 49bf
00000120: 4fc6 dcbe ea8c 003f d59e e1be f746 0cbf
00000130: 804e 203f df5a 12bf 664b 693f 9ea5 1f3f
00000140: f4a6 413f 3244 433f ce80 3b3f 2ab6 103f
00000150: 80f2 3cbf 1d85 483f 3ef0 3c3f 2187 15bf
00000160: df06 513f 2d01 14bf cc0c 22bf 195f 213f
00000170: b7ab 513f d9eb 25bf f066 283f ee52 45bf
00000180: 3a1e c13e 17a2 40bf 33c0 593f 8c77 383f
00000190: 4ce5 353f 3faa c6be 3ed1 19bf 5167 2d3f
000001a0: 5cbd 3abf 33e4 34bf 5cd9 173f 3a84 633f
000001b0: 0c8f 4c3f 9cf1 2cbf d711 f1be c6cc 183f
000001c0: e3a8 313f a41a 09bf f655 15bf 766e 1b3f
000001d0: 2467 053f beff 023f 8dc2 3e3f 25bb 033f
000001e0: bbd0 52bf 68be 2d3f 4c3c 423f 7cab ab3e
000001f0: 4b29 023f 48e7 273f 9e60 19bf 634f 3cbf
00000200: 9a51 8e3f 9416 6bbf e1c2 35bf bf9c 403f
00000210: b173 f8be f0d1 09bf 0ad7 1d3f 2158 333f
00000220: bd25 2dbf 97cb 08bf d6a9 8a3f ab71 c93e
00000230: 1165 f03e 3155 50bf f5a3 08bf 441f d23e
00000240: d5a4 3c3f a698 35bf 4a97 fd3e eb6a 13bf
00000250: d344 8e3f 3d13 253f ac50 1abf d42d 263f
00000260: ccd0 c7be 69d7 343f db67 383f ea37 55bf
00000270: 342a 463f 27b2 38bf 4032 7a3f 3f31 423f
00000280: cb35 003f 294c 01bf 6103 32bf 5449 fa3e
00000290: 2970 03bf b447 b7be ee5a d03e a824 03bf
000002a0: 2456 533f dc90 1abf 1646 4cbf ccb7 0dbf
000002b0: 02f9 363f f248 2c3f cdd7 0c3f 24f2 bdbe
000002c0: 9db9 44bf 922b 063f aa2d 563f fc23 6fbf
000002d0: 3452 493f fe98 373f 0b1d 1abf 86b3 13bf
000002e0: 3a73 3dbf 9861 243f ed2d 053f 29b4 3d3f
000002f0: 64da 8d3f 6d4c cd3e 6c6f 3a3f a496 e9be
00000300: c417 093f 3464 fdbe b813 183f 9cc4 533f
00000310: 6052 c2be ac42 053f 3ceb a13f 342f 2dbf
00000320: b804 113f 1f27 3fbf 3727 d4be 4717 3abf
00000330: bad3 463f 0297 5d3f 0014 0f3f 8bb8 3fbf
00000340: 8e0f 9a3f e884 22bf 1f65 20bf e8be 033f
00000350: f4e9 16bf bb21 b83e e321 38bf 3c46 413f
00000360: 04ec 49bf e85c dcbe 9929 513f 6e00 103f
00000370: e0e0 283f 2bfa dabe c57d 04bf 2627 31bf
00000380: c548 0d3f 0a40 743f 104b 19bf 81d0 1c3f
00000390: 6191 a23f a67a 1dbf 4f98 1bbf a36c fe3e
000003a0: 6545 1a3f c12c 42bf 57cc 1fbf a6d6 003f
000003b0: 8d8c 38bf f276 183f 8d3d 913f 3750 353f
000003c0: 1e51 f73e 91bc 07bf 0d07 31bf d285 303f
000003d0: 9b85 5cbf 01d9 543f be37 4abf a779 593f
000003e0: 980d 643f 1c2f 193f 0593 143f f577 fabe
000003f0: fc1f 85be 102a a33e d921 d2be 1500 9ebe
-0.37141186 0.5345046 0.69252247 0.5261197 0.4234664 -0.39106706 -0.6024594 0.31580862
1.2024359 0.5069554 0.7088202 0.44635266 0.87882787 0.7403198 -0.72661805 -0.26175854
0.2980682 0.41671225 1.2127237 -0.5045056 0.5309756 -0.63172156 -0.5254967 0.54156667
0.5544369 -0.38808143 -0.4966081 -0.71190715 0.90815264 0.6662703 0.6828743 -0.42669418
-0.34242803 -0.68560404 -0.7647776 -0.71502084 0.5166385 0.60241437 0.9385321 0.66214967
0.6758183 -0.47842792 -0.46220657 0.65062636 -0.85878617 -0.62888014 0.59597206 -0.7721052
0.7588073 0.8270037 0.56708515 0.7670719 -0.4105522 0.7563874 0.84545386 -0.64044845
0.440309 -0.5347005 1.0329429 -0.54051834 -0.5892796 0.6045667 -0.8026624 -0.8284733
0.60456693 0.8437085 -0.91097534 -0.49248537 0.792722 -0.80373263 0.38769618 -0.78799534
-0.43120047 0.5021502 -0.44066492 -0.54795784 0.6261978 -0.5716991 0.91130674 0.62362087
0.75645375 0.7627593 0.73243415 0.5652796 -0.73807526 0.78328115 0.7380408 -0.58409315
0.8165111 -0.57814294 -0.63300776 0.6303573 0.8190264 -0.64813 0.6578207 -0.77079666
0.37718374 -0.7524733 0.850589 0.72057414 0.71053004 -0.38801762 -0.60084903 0.67735773
-0.7294519 -0.70660704 0.5931604 0.88873637 0.7990577 -0.67556167 -0.47083923 0.5968746
0.69398326 -0.53556275 -0.5833429 0.60715425 0.52110505 0.5117148 0.7451561 0.51457435
-0.8234975 0.6786866 0.75873256 0.3352927 0.5084426 0.6558728 -0.5991305 -0.73558635
1.1118653 -0.91831326 -0.71000487 0.75239176 -0.48525766 -0.53835964 0.6165625 0.7005635
-0.6763571 -0.53435653 1.083308 0.39344534 0.46952108 -0.8137999 -0.5337518 0.4103948
0.73689014 -0.7093605 0.49529487 -0.5758502 1.1114753 0.6448248 -0.60279346 0.6491368
-0.39026487 0.7064119 0.7203347 -0.83288443 0.77408147 -0.7214684 0.97732925 0.75856394
0.5008208 -0.50506836 -0.69536406 0.4888407 -0.5134302 -0.35796893 0.40694374 -0.5122781
0.82553315 -0.6037729 -0.7979444 -0.55358577 0.71473706 0.67298806 0.55016786 -0.370988
-0.76845723 0.52410233 0.8366343 -0.9341428 0.78641057 0.7171782 -0.60200566 -0.57695806
-0.74003947 0.64211416 0.520232 0.7410303 1.1082273 0.4009737 0.72826266 -0.45622742
0.5355189 -0.4949051 0.5940509 0.8272188 -0.37953472 0.5205486 1.2649913 -0.6765015
0.56647825 -0.7466907 -0.4143617 -0.7269177 0.7766682 0.86558545 0.5588989 -0.74890965
1.2035997 -0.6348405 -0.626543 0.51463175 -0.58950734 0.35963234 -0.7192671 0.75497794
-0.78875756 -0.43039632 0.817041 0.56250656 0.6596813 -0.42768988 -0.5175441 -0.6920036
0.5518916 0.95410216 -0.5988016 0.6125565 1.2700616 -0.6151527 -0.6077928 0.49692258
0.6026214 -0.7584954 -0.6242117 0.5032753 -0.72089463 0.59556496 1.1346909 0.70825523
0.48304075 -0.53022105 -0.69151384 0.68954194 -0.86141366 0.8314362 -0.78991306 0.8495125
0.8908324 0.5983751 0.58036834 -0.48919645 -0.26000965 0.3186803 -0.4104145 -0.30859438

net.0.bias f4 [64]
00000000: 1181 1c3f 9286 5a3f 66ac 483f 0c0b 183f
00000010: 95d2 5b3f 81a6 113f db3d 183f 010c 723f
00000020: 0b52 c63e d886 dd3e 2e97 003f 02d5 383f
00000030: d2b1 e13e 5a40 1a3f 2d13 e93e 246b cc3e
00000040: 7487 f53e 9ef9 263f 7dca 443f bc7e 073f
00000050: d388 3f3f 0ce0 303f 96c6 693f e256 9d3e
00000060: 923e 523f 3df5 343f c6a1 043f 2891 483f
00000070: 8860 ae3e e2b4 753f 5051 0e3f b39c ff3e
00000080: 9139 f23e c652 303f 49fc 413f e64c 233f
00000090: bc76 483f 4937 4d3f c5e2 6d3f 5826 113f
000000a0: 3506 233f 8c98 773f 2931 c53e 9276 ab3e
000000b0: 512e 563f 0c1a f23e 7138 d43e 8bb3 533f
000000c0: ed4e 953e 6e32 2a3f eae6 273f 80c0 d33e
000000d0: bb7e a63e 24b9 0e3f a556 ce3e 6a22 553f
000000e0: 4a30 1c3f df15 2e3f 748e 2a3f bcd1 383f
000000f0: c734 dc3e f14a b33e 710c 5c3f cabb 613f
0.6113444 0.8536159 0.7838806 0.59391856 0.858682 0.5689469 0.59469384 0.94549567
0.3873447 0.4326694 0.5023068 0.72200024 0.4408098 0.6025444 0.45522442 0.39925492
0.47954905 0.65224636 0.7687147 0.52927756 0.7481815 0.6909187 0.91318643 0.3073035
0.82126725 0.70686704 0.51809347 0.7834649 0.34058022 0.9597913 0.55592823 0.4992424
0.47309545 0.688763 0.7577558 0.6378921 0.78306174 0.80162483 0.9292415 0.5669913
0.63681346 0.96717143 0.3851407 0.334889 0.83664423 0.47285497 0.4144931 0.82695836
0.29161778 0.664832 0.6558672 0.41357803 0.32518563 0.5575125 0.4030048 0.83255637
0.61011183 0.6800212 0.66623616 0.7219503 0.43009016 0.35018113 0.85956484 0.8817717

net.2.weight f4 [32, 64]
00000000: d317 023f b8c2 023f 4d7a 003f 3c82 dd3e
00000010: 6255 e33e 7d95 fc3e 94bf e43e b8c4 003f
00000020: 0c0a e33e 9a20 f93e b37b ad3e d4d8 0a3f
00000030: 3db5 3a3f c661 393f 8552 363f e754 0b3f
00000040: e05a 073f 063f 093f fd53 e83e a47a 073f
00000050: 69e9 423f e825 2c3f b555 3d3f 1362 2b3f
00000060: d0f3 243f 56b7 183f 9e6c ea3e 3ad0 043f
00000070: 6afa b03e 4af4 043f ac98 463f f17c 0a3f
00000080: b62b f73e 8bf9 cc3e 6075 ef3e c7e0 193f
00000090: f361 0b3f b184 163f 7732 013f 5d8b 223f
000000a0: 8ff2 023f 2a2f 023f 8b16 263f 62c6 293f
000000b0: a421 1c3f 1d08 203f 004e 0d3f 0929 1f3f
000000c0: 771e 1b3f 33f3 2f3f 3112 c93e a394 243f
000000d0: bdfd 023f 9441 0e3f b7ae 1d3f d6c9 2c3f
000000e0: 50f1 3e3f fa65 313f 362f 043f 6760 0b3f
000000f0: 3888 2b3f 39ca d83e 7b55 fe3e ae80 ed3e
00000100: 9e23 09be 85b3 bbbd 4992 46be ec86 52bd
00000110: f4eb fbbc bd0e a7bd 671f a0bc 48f5 f0bd
00000120: 5856 453c f19c f93c d68a c8bd f429 153c
00000130: a5d6 74bd c605 993c 3414 d5bd 98d4 edbd
00000140: 817c 30be 647e 1bbe b313 1cbd a404 d13c
00000150: 499e 18bd 3167 91bd f58c 1dbd 3f88 30bd
00000160: c1f7 98bc 5332 b6bb 5cd5 543c 0c9e 13be
00000170: d091 2abd d9a8 31be ecd8 40bc 8c2e c13c
00000180: 4bed b9bc 72b6 26bd 9399 1dbd b3c8 2cbe
00000190: b342 40be 6e9b 98bd dc3e c4bd 87f8 183d
000001a0: 67ea 20be 7080 35be 33f4 bbbc 567d 03be
000001b0: 4446 833c 462c 1fbc be66 47bd 0127 f2bd
000001c0: fa20 0bbe 61d1 2cbe 7d51 eebc 9f87 0bbe
000001d0: c4bf 343c 31f5 e5bc 5f54 1dbe 8cb0 4ebe
000001e0: d3ee 04bc 2f18 d83c edda 01be bb24 17be
000001f0: b239 19bd 8dda 3bbc 8478 e8bd e9bd ce3b
00000200: 510d 19be 992e eebd 415e 23bd 1fa5 3dbe
00000210: 303f b4bd fa56 0ebe 65ec 8ebd ffd3 afbd
00000220: 16ec 96bd 1cad 37be 51c2 b4bd 1abd 0c3d
00000230: 6a3b 03be 920d 813c e31d 06be d6cb 16bc
00000240: 929f 6bbd c241 14be 3ea2 693d 14a0 693d
00000250: 7a0b c4bd 3f6a f7bd 6262 3abe 95af 32be
00000260: b96f cebb 3a02 7ebd 041e fcbc cbd7 d43c
00000270: 6630 ee3c a525 acbd d046 c1bd a1e4 82bd
00000280: 1ccf f5bd f7a6 33be 06c6 a7bd eace 31bc
00000290: c21a 633d 3237 2fbe e36f bfbd 3fc2 a7bc
000002a0: 28c6 9cbc d37a 20bd c6af e63c 1d99 0fbd
000002b0: 3a95 2bbd 9054 42bd dbf0 0dbc e272 27be
000002c0: ff40 2fbe e5f0 37be b728 32be 9fd2 2abe
000002d0: d372 603d a15e 1bbe 3d82 8bbd 2f85 16be
000002e0: 3def 723d fce1 d9bd ab83 3ebd e52c dd3c
000002f0: d419 e5bd 684a 12be 662f 223d 49fa 33be
00000300: ff89 0c3d 5907 6fbd be03 db3c 6df9 03bd
00000310: d8dd 27bd 01b0 fabd a747 a3bd 7f20 ddbd
00000320: c063 f9bd 7d15 713d 8a1c 2bbb 275d 86bb
00000330: 69dd 10bd 45d5 03bd 63c5 993c eb48 99bd
00000340: a599 3ebd f022 c9bb 16cf 8dbd e259 2abe
00000350: 8404 07be 7439 443d b822 263d 1d7a 05be
00000360: 95e4 3f3d ae20 03be c961 f6bd a9f1 3fbe
00000370: fb7b e8bc 222b aebc d417 ffbd d825 31be
00000380: 8842 a73c f3e4 35bd c317 2e3d 42f3 05be
00000390: aa58 27be 87b7 19be 0c61 34be e1b3 dbbd
000003a0: 5c25 66bd 58d2 3dbe 971f 52bd 7a95 15be
000003b0: ddae 40be 3c5e e2bc 3052 033d 44b8 3f3d
000003c0: f859 cebd bd66 b43c 5ede dabd 72ca 0cbe
000003d0: bad2 12be 7879 41be 03c7 1bbe 75c1 bdbd
000003e0: cf2a 89bc 5566 86bd c5f3 613d b3eb 5dbd
000003f0: 004b 86bd f2e2 1dbd d0e2 3cbe 0491 82bd
0.508176 0.5107837 0.50186616 0.43263423 0.4440108 0.493328 0.44677413 0.5030017
0.44343603 0.48657686 0.33883438 0.54237103 0.729328 0.72414815 0.71219665 0.54426426
0.5287304 0.5361179 0.45376578 0.5292151 0.76137406 0.6724534 0.73958904 0.66946524
0.6443453 0.5965475 0.45785993 0.5188023 0.3456605 0.51935256 0.7757671 0.54096895
0.48275536 0.40034136 0.46769238 0.6010861 0.54446334 0.5879622 0.5046763 0.634939
0.51151365 0.50853217 0.6487815 0.66318333 0.6098883 0.6251238 0.55197144 0.6217199
0.6059336 0.6873047 0.3927169 0.642893 0.51168424 0.55568814 0.6159472 0.6749548
0.74586964 0.6929623 0.5163454 0.54443973 0.6700473 0.42341784 0.4967459 0.46387237
-0.13392493 -0.091651 -0.19391741 -0.051398203 -0.03075216 -0.08157108 -0.019546224 -0.11765534
0.012044512 0.030470343 -0.09792106 0.009104241 -0.059775013 0.01867951 -0.10404244 -0.11612815
-0.17234994 -0.15184933 -0.038104724 0.025514908 -0.037260327 -0.0709976 -0.038464505 -0.043098684
-0.018672826 -0.0055601983 0.012990322 -0.14415759 -0.041642964 -0.17349567 -0.011770468 0.023581766
-0.022696158 -0.040701337 -0.038476538 -0.16873436 -0.18775444 -0.07451521 -0.09582302 0.03734639
-0.15714417 -0.17724776 -0.022943592 -0.1284078 0.016024716 -0.009715145 -0.048681967 -0.11823846
-0.13586798 -0.16876747 -0.029091591 -0.13625954 0.011032049 -0.028071018 -0.15364216 -0.20184535
-0.008113581 0.02637872 -0.1268117 -0.14760105 -0.03740854 -0.011465681 -0.113511115 0.00630926
-0.14946486 -0.116299815 -0.03988481 -0.1852002 -0.088011146 -0.13900366 -0.069786824 -0.08585357
-0.073692486 -0.1793713 -0.088261254 0.03436003 -0.12815633 0.015753541 -0.13097338 -0.009203872
-0.057525225 -0.1447821 0.05703949 0.057037428 -0.095725015 -0.12080812 -0.18201593 -0.17449792
-0.0062999395 -0.062013842 -0.030776031 0.025981804 0.029075813 -0.084056176 -0.094373345 -0.06391264
-0.120023936 -0.17544161 -0.08192067 -0.010852555 0.05544544 -0.17110899 -0.093475126 -0.020478366
-0.019137457 -0.039179634 0.028159987 -0.03505813 -0.04189036 -0.047443926 -0.008663381 -0.16352418
-0.17114638 -0.17962988 -0.17398344 -0.16681908 0.054797005 -0.15172817 -0.0681195 -0.14699243
0.059310187 -0.10638806 -0.046512287 0.026998946 -0.11186567 -0.14286196 0.039595984 -0.17575945
0.03431129 -0.058356617 0.026735183 -0.032220293 -0.04098305 -0.12240601 -0.07972651 -0.10797214
-0.12177229 0.058858383 -0.002610954 -0.00410046 -0.035367403 -0.03218581 0.01877088 -0.07484611
-0.046533246 -0.006138198 -0.06924264 -0.1663585 -0.13185316 0.047906354 0.040560454 -0.13034864
0.046848852 -0.12805435 -0.1203037 -0.1874453 -0.028379431 -0.021260802 -0.12455717 -0.17299592
0.020417467 -0.044407796 0.04250313 -0.13081077 -0.16342416 -0.15011416 -0.17615145 -0.107276686
-0.056187972 -0.18537271 -0.051299658 -0.14607802 -0.18816705 -0.027632825 0.032060802 0.04680659
-0.10075754 0.022021646 -0.106869444 -0.13749102 -0.14338198 -0.18893993 -0.15212636 -0.092654146
-0.016744046 -0.06562487 0.055164117 -0.05417986 -0.06557274 -0.03854651 -0.18445897 -0.06375316

net.2.bias f4 [32]
00000000: b3e8 1b3f bf58 17be 31ab f9bd afb7 14be
00000010: dc09 f0bc 1aa7 14be b1af 2f3f 79a0 293f
00000020: 3632 0e3f dd8c d4bd 67dc 02be c4c7 223f
00000030: 8efa bd3c 3c0f 1dbe 28cc 093f 160c 133f
00000040: b87c 263f 9e85 12be 7869 2b3f 17ce 2cbe
00000050: e1b5 4f3b b57c 093f e260 b5bd 22b2 2d3f
00000060: cd1a 003f 065a fa3e 1b69 d8bd f16c 133f
00000070: 0eca 1b3f ebc9 15be 0165 2f3f 596f 06bd
0.60901946 -0.14779948 -0.12190855 -0.14523195 -0.029301576 -0.14516869 0.6862746 0.66260487
0.55545366 -0.1037843 -0.1277939 0.6358607 0.023190763 -0.15337843 0.5382714 0.57440317
0.65034056 -0.14308783 0.6695781 -0.16875492 0.0031694102 0.5370591 -0.088563696 0.67849934
0.50040895 0.48896807 -0.10566922 0.57588106 0.60855186 -0.14627807 0.68513495 -0.032821033

net.4.weight f4 [1, 32]
00000000: 9aa3 213f 3670 9abd a052 3fbd 5e28 32bd
00000010: 3bc8 393b 330b 6f3d 076a 493f 5655 353f
00000020: 856c 503f 6515 c4bd f04e c2bd e0da 353f
00000030: 96a7 a3bd 0566 5a3d ecc6 443f d8ed 4d3f
00000040: e759 313f 167a bcbb 90b5 393f dd06 443c
00000050: 4d57 a6bc 0aae 363f a6d4 9abd bb97 3e3f
00000060: b491 373f 1445 363f 968f 843c 4924 4a3f
00000070: 36c1 293f 3bab 95bd f7fc 523f 89ac 313d
0.6314026 -0.07540934 -0.046709657 -0.04349553 0.0028348106 0.05836029 0.7867741 0.7083334
0.8141559 -0.09574393 -0.094877124 0.710371 -0.07990949 0.05331995 0.7686603 0.80441046
0.69277805 -0.0057518585 0.7254267 0.011964527 -0.0203053 0.7135931 -0.07560091 0.7445027
0.717067 0.71199155 0.016181748 0.78961617 0.6631044 -0.0730805 0.82417244 0.043377433
